{"training_loss": ["tensor(2.996284, device='cuda:0')"], "validation_loss": ["4.521513"], "epoch_num": ["15"], "learning_rate": ["0.001"], "model_info": ["Seq2SeqRNN(", "  (pre_trained_vector): Embedding(52221, 200, padding_idx=1)", "  (encoder_dropout): Dropout(p=0.0)", "  (encoder_embedding_layer): Embedding(52221, 200, padding_idx=1)", "  (encoder_rnn): GRU(200, 200, bidirectional=True)", "  (encoder_vector_layer): Linear(in_features=400, out_features=200, bias=False)", "  (decoder_dropout): Dropout(p=0.0)", "  (decoder_embedding_layer): Embedding(52221, 200, padding_idx=1)", "  (decoder_rnn): GRU(200, 400)", "  (decoder_output_layer): Linear(in_features=400, out_features=200, bias=False)", "  (output_layer): Linear(in_features=200, out_features=52221, bias=False)", "  (encoder_output_layer): Linear(in_features=400, out_features=200, bias=False)", "  (att_vector_layer): Linear(in_features=400, out_features=200, bias=False)", "  (decoder_hidden_layer): Linear(in_features=400, out_features=200, bias=False)", "  (att_score): Linear(in_features=200, out_features=1, bias=False)", ")", "(attention_type): Bahdanau", "(weight_tie): three_way", "(pre_trained_vector_type): glove.6B.200d", "(teacher_forcing): True", "(teacher_forcing_prob): 0.0"]}